{"class_name": "Model", "keras_version": "2.3.1", "backend": "tensorflow", "config": {"output_layers": [["softmax", 0, 0]], "input_layers": [["input", 0, 0]], "name": "model_1", "layers": [{"class_name": "InputLayer", "name": "input", "inbound_nodes": [], "config": {"batch_input_shape": [null, null, 1], "name": "input", "dtype": "float32", "sparse": false}}, {"class_name": "Masking", "name": "masking_1", "inbound_nodes": [[["input", 0, 0, {}]]], "config": {"name": "masking_1", "trainable": true, "dtype": "float32", "mask_value": 100}}, {"class_name": "GaussianNoise", "name": "gaussian_noise_1", "inbound_nodes": [[["masking_1", 0, 0, {}]]], "config": {"stddev": 0.01, "name": "gaussian_noise_1", "trainable": true, "dtype": "float32"}}, {"class_name": "TimeDistributed", "name": "fc_0", "inbound_nodes": [[["gaussian_noise_1", 0, 0, {}]]], "config": {"dtype": "float32", "name": "fc_0", "trainable": true, "layer": {"class_name": "Dense", "config": {"dtype": "float32", "kernel_constraint": null, "kernel_initializer": {"class_name": "RandomNormal", "config": {"stddev": 0.05, "mean": 0.0, "seed": 8}}, "name": "dense_1", "activation": "relu", "trainable": true, "kernel_regularizer": null, "bias_initializer": {"class_name": "RandomNormal", "config": {"stddev": 0.05, "mean": 0.0, "seed": 8}}, "units": 300, "use_bias": true, "bias_regularizer": null, "activity_regularizer": null, "bias_constraint": null}}}}, {"class_name": "TimeDistributed", "name": "dropout_0", "inbound_nodes": [[["fc_0", 0, 0, {}]]], "config": {"dtype": "float32", "name": "dropout_0", "trainable": true, "layer": {"class_name": "Dropout", "config": {"noise_shape": null, "name": "dropout_1", "seed": null, "rate": 0.2, "trainable": true, "dtype": "float32"}}}}, {"class_name": "TimeDistributed", "name": "fc_1", "inbound_nodes": [[["dropout_0", 0, 0, {}]]], "config": {"dtype": "float32", "name": "fc_1", "trainable": true, "layer": {"class_name": "Dense", "config": {"dtype": "float32", "kernel_constraint": null, "kernel_initializer": {"class_name": "RandomNormal", "config": {"stddev": 0.05, "mean": 0.0, "seed": 8}}, "name": "dense_2", "activation": "relu", "trainable": true, "kernel_regularizer": null, "bias_initializer": {"class_name": "RandomNormal", "config": {"stddev": 0.05, "mean": 0.0, "seed": 8}}, "units": 300, "use_bias": true, "bias_regularizer": null, "activity_regularizer": null, "bias_constraint": null}}}}, {"class_name": "TimeDistributed", "name": "dropout_1", "inbound_nodes": [[["fc_1", 0, 0, {}]]], "config": {"dtype": "float32", "name": "dropout_1", "trainable": true, "layer": {"class_name": "Dropout", "config": {"noise_shape": null, "name": "dropout_2", "seed": null, "rate": 0.2, "trainable": true, "dtype": "float32"}}}}, {"class_name": "Bidirectional", "name": "bidirectional_1", "inbound_nodes": [[["dropout_1", 0, 0, {}]]], "config": {"layer": {"class_name": "LSTM", "config": {"kernel_constraint": null, "implementation": 2, "go_backwards": false, "activation": "tanh", "recurrent_activation": "sigmoid", "recurrent_initializer": {"class_name": "Orthogonal", "config": {"gain": 1.0, "seed": null}}, "unit_forget_bias": true, "recurrent_constraint": null, "unroll": false, "use_bias": true, "dropout": 0.2, "bias_regularizer": null, "dtype": "float32", "return_state": false, "kernel_initializer": {"class_name": "VarianceScaling", "config": {"scale": 1.0, "mode": "fan_avg", "distribution": "uniform", "seed": 5}}, "name": "lstm_1", "stateful": false, "recurrent_dropout": 0.0, "return_sequences": true, "recurrent_regularizer": null, "bias_initializer": {"class_name": "Zeros", "config": {}}, "bias_constraint": null, "units": 300, "trainable": true, "activity_regularizer": null, "kernel_regularizer": null}}, "name": "bidirectional_1", "trainable": true, "dtype": "float32", "merge_mode": "concat"}}, {"class_name": "Bidirectional", "name": "bidirectional_2", "inbound_nodes": [[["bidirectional_1", 0, 0, {}]]], "config": {"layer": {"class_name": "LSTM", "config": {"kernel_constraint": null, "implementation": 2, "go_backwards": false, "activation": "tanh", "recurrent_activation": "sigmoid", "recurrent_initializer": {"class_name": "Orthogonal", "config": {"gain": 1.0, "seed": null}}, "unit_forget_bias": true, "recurrent_constraint": null, "unroll": false, "use_bias": true, "dropout": 0.2, "bias_regularizer": null, "dtype": "float32", "return_state": false, "kernel_initializer": {"class_name": "VarianceScaling", "config": {"scale": 1.0, "mode": "fan_avg", "distribution": "uniform", "seed": 5}}, "name": "lstm_2", "stateful": false, "recurrent_dropout": 0.0, "return_sequences": true, "recurrent_regularizer": null, "bias_initializer": {"class_name": "Zeros", "config": {}}, "bias_constraint": null, "units": 300, "trainable": true, "activity_regularizer": null, "kernel_regularizer": null}}, "name": "bidirectional_2", "trainable": true, "dtype": "float32", "merge_mode": "concat"}}, {"class_name": "Bidirectional", "name": "bidirectional_3", "inbound_nodes": [[["bidirectional_2", 0, 0, {}]]], "config": {"layer": {"class_name": "LSTM", "config": {"kernel_constraint": null, "implementation": 2, "go_backwards": false, "activation": "tanh", "recurrent_activation": "sigmoid", "recurrent_initializer": {"class_name": "Orthogonal", "config": {"gain": 1.0, "seed": null}}, "unit_forget_bias": true, "recurrent_constraint": null, "unroll": false, "use_bias": true, "dropout": 0.2, "bias_regularizer": null, "dtype": "float32", "return_state": false, "kernel_initializer": {"class_name": "VarianceScaling", "config": {"scale": 1.0, "mode": "fan_avg", "distribution": "uniform", "seed": 5}}, "name": "lstm_3", "stateful": false, "recurrent_dropout": 0.0, "return_sequences": true, "recurrent_regularizer": null, "bias_initializer": {"class_name": "Zeros", "config": {}}, "bias_constraint": null, "units": 300, "trainable": true, "activity_regularizer": null, "kernel_regularizer": null}}, "name": "bidirectional_3", "trainable": true, "dtype": "float32", "merge_mode": "concat"}}, {"class_name": "TimeDistributed", "name": "fc_3", "inbound_nodes": [[["bidirectional_3", 0, 0, {}]]], "config": {"dtype": "float32", "name": "fc_3", "trainable": true, "layer": {"class_name": "Dense", "config": {"dtype": "float32", "kernel_constraint": null, "kernel_initializer": {"class_name": "RandomNormal", "config": {"stddev": 0.05, "mean": 0.0, "seed": 8}}, "name": "dense_3", "activation": "relu", "trainable": true, "kernel_regularizer": null, "bias_initializer": {"class_name": "RandomNormal", "config": {"stddev": 0.05, "mean": 0.0, "seed": 8}}, "units": 300, "use_bias": true, "bias_regularizer": null, "activity_regularizer": null, "bias_constraint": null}}}}, {"class_name": "TimeDistributed", "name": "dropout_3", "inbound_nodes": [[["fc_3", 0, 0, {}]]], "config": {"dtype": "float32", "name": "dropout_3", "trainable": true, "layer": {"class_name": "Dropout", "config": {"noise_shape": null, "name": "dropout_3", "seed": null, "rate": 0.2, "trainable": true, "dtype": "float32"}}}}, {"class_name": "TimeDistributed", "name": "time_distributed_1", "inbound_nodes": [[["dropout_3", 0, 0, {}]]], "config": {"dtype": "float32", "name": "time_distributed_1", "trainable": true, "layer": {"class_name": "Dense", "config": {"dtype": "float32", "kernel_constraint": null, "kernel_initializer": {"class_name": "VarianceScaling", "config": {"scale": 1.0, "mode": "fan_avg", "distribution": "uniform", "seed": null}}, "name": "dense", "activation": "linear", "trainable": true, "kernel_regularizer": null, "bias_initializer": {"class_name": "Zeros", "config": {}}, "units": 5, "use_bias": true, "bias_regularizer": null, "activity_regularizer": null, "bias_constraint": null}}}}, {"class_name": "Activation", "name": "softmax", "inbound_nodes": [[["time_distributed_1", 0, 0, {}]]], "config": {"dtype": "float32", "name": "softmax", "trainable": true, "activation": "softmax"}}]}}